…
        "id": "9P35UXL8LDIK"
      },
      "execution_count": null,
      "outputs": []
    },
    {
      "cell_type": "code",
      "source": [
        "#train EMNIST-Letter. Get best results. Then recompile with different learning rate and fit it to caroline's data. \n",
        "\n",
        "\n",
        "model = Sequential()\n",
        "\n",
        "model.add(Conv2D(filters=96, kernel_size=(3,3), padding = 'same', activation='relu',\\\n",
        "                 input_shape=(28, 28,1)))\n",
        "model.add(BatchNormalization())\n",
        "model.add(Conv2D(filters=96, kernel_size=(3,3) , padding = 'same', activation='relu'))\n",
        "model.add(BatchNormalization())\n",
        "model.add(Conv2D(filters=96, kernel_size=(3,3) , strides=2 , padding = 'same', activation='relu'))\n",
        "model.add(BatchNormalization())\n",
        "model.add(Dropout(0.5))\n",
        "model.add(Conv2D(filters=192, kernel_size=(3,3) , padding = 'same', activation='relu'))\n",
        "model.add(Conv2D(filters=192, kernel_size=(3,3) , padding = 'same', activation='relu'))\n",
        "model.add(Conv2D(filters=192, kernel_size=(3,3) , strides=2 ,  padding = 'same', activation='relu'))\n",
        "model.add(Dropout(0.5))\n",
        "model.add(Conv2D(filters=192, kernel_size=(3,3), activation='relu'))\n",
        "model.add(Conv2D(filters=192, kernel_size=(1,1), activation='relu'))\n",
        "model.add(Conv2D(filters=53, kernel_size=(1,1)))\n",
        "model.add(GlobalAveragePooling2D(data_format='channels_last'))\n",
        "model.add(BatchNormalization())\n",
…
          "base_uri": "https://localhost:8080/"
        },
        "outputId": "9a680189-6fb6-4328-8801-39a7cf1fc905"
      },
      "execution_count": null,
      "outputs": [
        {
          "output_type": "stream",
          "name": "stdout",
          "text": [
            "Model: \"sequential\"\n",
            "_________________________________________________________________\n",
            " Layer (type)                Output Shape              Param #   \n",
            "=================================================================\n",
            " conv2d (Conv2D)             (None, 28, 28, 96)        960       \n",
            "                                                                 \n",
            " batch_normalization (BatchN  (None, 28, 28, 96)       384       \n",
            " ormalization)                                                   \n",
            "                                                                 \n",
            " conv2d_1 (Conv2D)           (None, 28, 28, 96)        83040     \n",
            "                                                                 \n",
            " batch_normalization_1 (Batc  (None, 28, 28, 96)       384       \n",
            " hNormalization)                                                 \n",
            "                                                                 \n",
            " conv2d_2 (Conv2D)           (None, 14, 14, 96)        83040     \n",
            "                                                                 \n",
            " batch_normalization_2 (Batc  (None, 14, 14, 96)       384       \n",
            " hNormalization)                                                 \n",
            "                                                                 \n",
            " dropout (Dropout)           (None, 14, 14, 96)        0         \n",
            "                                                                 \n",
            " conv2d_3 (Conv2D)           (None, 14, 14, 192)       166080    \n",
            "                                                                 \n",
            " conv2d_4 (Conv2D)           (None, 14, 14, 192)       331968    \n",
            "                                                                 \n",
            " conv2d_5 (Conv2D)           (None, 7, 7, 192)         331968    \n",
            "                                                                 \n",
            " dropout_1 (Dropout)         (None, 7, 7, 192)         0         \n",
            "                                                                 \n",
            " conv2d_6 (Conv2D)           (None, 5, 5, 192)         331968    \n",
            "                                                                 \n",
            " conv2d_7 (Conv2D)           (None, 5, 5, 192)         37056     \n",
            "                                                                 \n",
            " conv2d_8 (Conv2D)           (None, 5, 5, 53)          10229     \n",
            "                                                                 \n",
            " global_average_pooling2d (G  (None, 53)               0         \n",
            " lobalAveragePooling2D)                                          \n",
            "                                                                 \n",
            " batch_normalization_3 (Batc  (None, 53)               212       \n",
            " hNormalization)                                                 \n",
            "                                                                 \n",
            " activation (Activation)     (None, 53)                0         \n",
            "                                                                 \n",
            "=================================================================\n",
            "Total params: 1,377,673\n",
            "Trainable params: 1,376,991\n",
            "Non-trainable params: 682\n",
            "_________________________________________________________________\n"
          ]
…
